model_state_v.pth (torch, 79180 bytes, 9 tensors)

conv1.weight f4 [8, 1, 5, 5]
000000 8c ef b7 3b 98 f1 2d be ed 0f 4a 3e b2 68 24 3e
       0.005613273 -0.16986692 0.19732638 0.16055563
000010 a1 13 86 bb 91 77 1e 3c 78 8d 8a bd 01 07 59 3e
       -0.0040916954 0.009672062 -0.06765264 0.21194078
000020 1c b3 38 bc 18 94 bc bb ff e7 c4 3d 46 8f fc 3d
       -0.011273172 -0.005754959 0.09614562 0.12332015
000030 b7 ad b7 bd 2a 7b c7 bd 3d df c9 bd 3d 46 13 bd
       -0.0896868 -0.097402886 -0.098570324 -0.035955656
000040 f9 42 cd bd 84 a9 d9 3d de fa e5 3d 5d 61 30 be
       -0.1002254 0.10628036 0.1122949 -0.17224641
000050 ae 5c 25 3c e0 55 1f 3c 0d 2a e7 3d e7 62 21 3d
       0.010092897 0.009725064 0.112873174 0.03940096
000060 99 52 2a be d7 ff b8 bd 65 9c 46 be 06 06 2b 3e
       -0.16633071 -0.090331726 -0.19395597 0.16701517
000070 dd 97 a7 bd bb 50 1b 3e 5b fc 48 be 5c f0 2e be
       -0.081832625 0.15167515 -0.19627516 -0.17083877
000080 00 7a 20 3e e8 cc bc 3d 86 4b e8 bd d1 bf 5b be
       0.1567154 0.0921877 -0.1134253 -0.21459891
000090 7e 86 a7 3d 48 07 00 3e c4 28 0d 3e 54 ea 66 3e
       0.08179949 0.12502778 0.13785082 0.22550327
0000a0 be cf 2d be be 1e ab 3c 86 2b 18 be a2 0e 14 be
       -0.16973779 0.020888682 -0.14860353 -0.14458707
0000b0 59 a1 38 3e a4 7d 93 3d ae 26 82 3d 4d 82 6a 3e
       0.18030299 0.072016984 0.06355034 0.22901268
0000c0 44 01 02 bd 87 54 34 bc c6 b9 25 3c b9 f4 4f 3e
       -0.03173949 -0.011006481 0.010115093 0.20308198
0000d0 36 3e 5b 3e a8 7c 3e 3e c4 f9 18 be 85 4d 7d bd
       0.2141045 0.1860224 -0.14939028 -0.061841507
0000e0 ab df 0a be 1d 60 aa bd 51 94 26 3e 7f d4 e9 3d
       -0.13561885 -0.083191134 0.16267516 0.114174835
0000f0 42 f4 e8 3d 7a 4e 29 3e 5c 8f 2d 3e af 60 ae bd
       0.113747135 0.16533843 0.16949219 -0.08514535
000100 5b c0 04 bd f4 97 c7 bd 82 e8 43 3e ce 74 0a 3e
       -0.032410007 -0.0974578 0.19131663 0.1352112
000110 08 45 10 be 54 c2 14 be 36 c0 b2 3d c6 47 00 bd
       -0.14088833 -0.14527255 0.087280676 -0.03131845
000120 84 27 d2 3d e9 95 0e 3e 69 8f 22 be 08 36 2f be
       0.10261443 0.13924374 -0.15875019 -0.17110455
000130 76 31 6f 3d d6 7d 2e bd 61 a5 da bd 1b 82 2e be
       0.05839678 -0.042600475 -0.10676075 -0.17041819
000140 79 dc 23 bd a7 38 2c 3d e0 df eb bd d1 83 4d 3b
       -0.04000518 0.042046215 -0.1151731 0.0031359086
000150 29 a9 2d be c8 b8 d6 3d 2f 92 99 bc 4f 3d 06 bd
       -0.1695906 0.10484463 -0.018746464 -0.032773312
000160 1a 3d a8 bd bc a1 61 bb fb f0 cb bd 37 be 98 bd
       -0.08214779 -0.0034428677 -0.09958073 -0.074581556
000170 b6 2b 0d 3e 47 8a d5 bc 7b 48 16 be f0 ad 29 be
       0.13786206 -0.026066912 -0.14676087 -0.16570258
000180 28 37 9d bd db 54 b5 bd 1b a7 47 bc d0 cf 5a 3d
       -0.07676536 -0.088540755 -0.012185837 0.05342084
000190 91 3b ae bb e6 97 e2 bd d6 48 71 be 78 3a cc 3d
       -0.0053171595 -0.110641286 -0.23562941 0.099720895
0001a0 83 5f 81 bd b9 ed 6f be 06 56 bb 3d 37 d7 1b be
       -0.063170455 -0.23430528 0.09147267 -0.15218817
0001b0 0a fa 85 bb fa 4e ce bd 76 8d 23 bd b4 99 a4 3d
       -0.004088645 -0.10073657 -0.03992983 0.08037129
0001c0 92 a3 19 3e 08 d9 00 be 75 0e 06 3e 46 b2 80 3c
       0.15003803 -0.12582791 0.13091452 0.015710007
0001d0 3f 7f 24 3e 99 0a 0a be e8 cb 38 3e 9e 7d 47 3e
       0.16064166 -0.13480605 0.18046534 0.19481513
0001e0 14 36 b0 3d 2b 77 5a 3e 47 80 2f 3d b0 ff 84 bc
       0.086040646 0.21334521 0.042846944 -0.016235203
0001f0 b5 1f c7 3d 47 17 71 be dd 07 05 3e ab 57 a5 bd
       0.097228445 -0.23544036 0.12991281 -0.08073362
000200 3e e7 9c 3d 0d 8c f0 3d 86 82 c0 3c 7d b1 b5 bd
       0.076612934 0.117454626 0.023499738 -0.08871744
000210 f3 90 85 3c c2 f8 77 3d f6 75 9a 3d 58 c2 30 be
       0.016304469 0.06053997 0.075420305 -0.17261636
000220 6f 58 54 be ac 68 33 bc af 95 85 bd 8a 07 20 be
       -0.2073686 -0.010950249 -0.065226905 -0.15627876
000230 35 5d 7d 3c ff 2b 03 3e b2 21 4d 3e ef 08 f2 3d
       0.015464117 0.12809752 0.20032385 0.1181811
000240 ef fb ef bd 8d 90 18 3d f7 b3 5b 3e df ba d1 ba
       -0.117179744 0.03724723 0.2145537 -0.0016001126
000250 34 c3 b2 3b 34 26 80 3d fd d7 1b be ce 22 d4 bd
       0.005455399 0.06257287 -0.15219112 -0.10358201
000260 ff ac 2a be 49 78 41 bc 9e 67 17 bd ee 5f 30 bd
       -0.16667555 -0.011808463 -0.03696405 -0.043060236
000270 21 cb 6e 3c 23 c1 2c be bb 0d 0e 3d f3 7e 3d 3e
       0.014574797 -0.16870551 0.034681063 0.18505459
000280 93 f1 f7 bd 90 7a 80 bd 28 2f 3b bc 96 12 47 3e
       -0.121066235 -0.06273377 -0.011424817 0.19440684
000290 0a 2f 78 3c 9c a8 35 be f3 99 6c bc 38 31 60 bd
       0.015147934 -0.177401 -0.014441001 -0.05473444
0002a0 b0 58 b8 bd ff fe 60 bd c6 65 bf 3d 28 97 d9 bd
       -0.09001291 -0.054930683 0.093455836 -0.10624534
0002b0 f8 0e 4c 3d dc 1b ca 3d 57 19 d5 3d 43 fd 11 3d
       0.049818963 0.09868595 0.10405224 0.03564192
0002c0 8c 08 cf bd 90 b1 6f 3e ef 65 35 3e 59 7e 66 3e
       -0.10109052 0.23407578 0.17714666 0.22509135
0002d0 a7 6e 34 3e 18 f5 a6 3d 82 b7 f0 3c 22 55 90 bd
       0.17620336 0.08152217 0.029384378 -0.07047488
0002e0 99 fe 00 3d 55 ea 1a 3d ab 2e b6 3d 84 b5 10 be
       0.031492803 0.037821133 0.0889562 -0.14131743
0002f0 01 cd 9c 3d 36 68 33 3d aa 1e a0 3d da e9 da 3c
       0.07656289 0.043800555 0.07818349 0.026722837
000300 9d 80 13 3e b9 58 d0 bd c8 0e a0 3c 24 98 82 be
       0.14404531 -0.101731725 0.019538298 -0.255067
000310 51 e0 07 be bd 55 99 be ba 5e 4f be 52 2f 40 be
       -0.13269164 -0.29948226 -0.20250979 -0.18768051

conv1.bias f4 [8]
000000 3c 41 96 bd 13 63 1b bc 2b b7 51 3d 7d 68 e3 bc
       -0.07336661 -0.00948407 0.051200073 -0.027759785
000010 de ad 80 3d 2b fb 8f bd a6 f8 c1 3d 8d 07 02 3e
       0.062831625 -0.07030328 0.09471254 0.12698193

conv2.weight f4 [16, 8, 5, 5]
000000 e2 a0 22 3d a4 4d 7a 3d a2 f9 a5 bc 33 e6 2b 3d
       0.03970421 0.0611092 -0.020260636 0.041967582
000010 93 42 fd 3c 71 00 6f bd fa 31 34 3d 0a f8 65 bd
       0.030915534 -0.05835003 0.043992974 -0.05614475
000020 b9 49 82 bd 95 2a 14 bb 77 15 10 3b 24 48 9a bc
       -0.06361718 -0.0022608389 0.002198545 -0.018833227
000030 06 7f 7e bd 0f c8 6b bd ad ed 77 bd ee 77 93 bd
       -0.062132858 -0.057563838 -0.0605294 -0.07200609
000040 87 d6 ea 3c 35 c0 42 bd 48 d8 44 3d d9 00 df bc
       0.028666748 -0.047546584 0.048057824 -0.027222084
000050 0e 18 11 bd c4 66 26 3d 52 0e 83 39 c8 27 25 3d
       -0.03542333 0.04062535 0.00024996937 0.04032114
000060 d9 e1 7c 3d 91 1c 6c 3d 39 78 55 3d 6c 8e 74 3d
       0.061738823 0.05764443 0.052116606 0.059706137
000070 02 aa 5d bd 7c d3 a9 bb a4 e4 48 3d d0 e0 1e bd
       -0.05411721 -0.0051826816 0.049046174 -0.038788617
000080 1a bc 87 3d 06 de e5 3b 24 65 95 3b ba 0a ba 3c
       0.066276744 0.0070149926 0.004559176 0.022710193
000090 d9 8f 2e 3d a6 c6 7a 3c 23 be 3f 3d 09 dd 18 3d
       0.042617653 0.015306151 0.046812188 0.03732017
0000a0 a4 39 d6 3b eb 8b 4c bd 19 35 68 3b 39 39 8f bc
       0.006537633 -0.049938124 0.003543204 -0.01748334
0000b0 c8 a0 fc 3c fc 13 c5 3c fb ee 82 3d 28 cf 86 bb
       0.030838385 0.02405738 0.06393238 -0.0041140504
0000c0 5b ac 77 3d 46 d5 2e 3a 94 bd d1 b9 12 94 8d bd
       0.060467105 0.00066693535 -0.00040004833 -0.06913008
0000d0 89 b8 4a bd 0f 71 30 3d 7e 8d 06 3d d4 4f 57 3d
       -0.049492393 0.04307657 0.03284978 0.052566364
0000e0 e8 0e 3e 3d 37 fa 4e bc b9 d1 cb 3c f1 2a 88 3d
       0.046400934 -0.012632898 0.024880277 0.066488154
0000f0 ac 74 c6 ba aa 43 b0 3b 57 d3 be bc 59 60 75 bc
       -0.0015140972 0.00537916 -0.023294134 -0.014976584
000100 9b d3 3a bd b8 dc 81 39 dc a1 5c bd 88 34 00 bd
       -0.04561196 0.00024769246 -0.0538653 -0.031300098
000110 44 d1 45 bd 24 20 49 3b 35 27 87 3d a4 4c 64 3c
       -0.048295274 0.0030689323 0.06599275 0.013934288
000120 2b 1c fb 3b 5e 7f 6a bd 24 76 ab 3b 6f 6f 2f bd
       0.00766327 -0.057250373 0.0052325893 -0.04283088
000130 5b a5 b6 bb 73 f0 43 3c 02 9c 43 3d c1 66 e3 3c
       -0.005573911 0.011959183 0.047756203 0.027758958
000140 44 e5 dd bc 5f 2b 4c bd 9b 34 10 bd 72 c2 4b bd
       -0.027086861 -0.04984605 -0.03520642 -0.049745984
000150 03 0c 67 3d df 81 3c bd d3 fb 2c bd 3b 39 25 3c
       0.05640794 -0.046022292 -0.042232346 0.010084446
000160 79 36 7d 3c 05 0c 47 3d 45 05 9b 3d 0a 4d 72 3d
       0.015454882 0.048595447 0.075693645 0.0591555
000170 74 b4 14 3d e1 28 65 bd e8 e6 4d 3d 76 c4 92 3d
       0.036304906 -0.05594719 0.050269037 0.07166378
000180 f5 4c c7 39 a8 73 84 bd 95 e9 89 bd 47 16 72 bc
       0.00038013575 -0.06467372 -0.06734005 -0.014775819
000190 fa e8 36 bd 25 29 1a bd be b5 d7 3c 79 3d 8d bd
       -0.044655778 -0.037636895 0.026331779 -0.068964906
0001a0 f7 60 7c 3d 0f 90 8b bd 69 e7 55 3d cc 70 db bc
       0.06161591 -0.06814586 0.052222643 -0.026787184
0001b0 45 36 50 3d 98 bc 96 3d 98 27 89 bc f8 e7 aa 3b
       0.050833005 0.0736019 -0.016742513 0.005215641
0001c0 7d b5 8b bd 83 56 b0 3b fb 9c 49 bd 67 12 07 3d
       -0.068217255 0.0053814068 -0.049221974 0.032976534
0001d0 a2 cf 92 bd fe c8 0a 3d 8e 1d 87 bd fb 57 63 3c
       -0.07168509 0.033883087 -0.06597434 0.013875957
0001e0 f2 39 fc 3c b8 50 1e bd 5f 8c d9 bc 41 19 91 bb
       0.03078935 -0.0386512 -0.026556192 -0.0044280593
0001f0 35 cf ea bc 1a e2 3c 3c 51 84 8f bb a8 2f 37 3d
       -0.028663257 0.011528516 -0.004379787 0.044723183
000200 42 ef 89 3d 24 25 49 bd 71 ba 8b bd 04 ae 99 bd
       0.06735088 -0.049107686 -0.0682267 -0.07503894
000210 18 1c 1b 3d 87 f5 81 3d 99 e8 8f 3d 49 cb 07 bd
       0.03786859 0.06345659 0.07026786 -0.033152852
000220 2b 7b 56 bd f6 4b ef bc 46 ff 24 3c 3e ce 87 bd
       -0.052363556 -0.029211026 0.010070628 -0.066311345
000230 d0 f3 7e 3b 45 51 67 3c b7 60 59 3d fd f2 07 3d
       0.0038902648 0.014118497 0.05307075 0.033190716
000240 78 3a 58 bd 7d 80 76 b9 2f 19 79 bc 43 be 50 bd
       -0.052790135 -0.00023508254 -0.015203758 -0.050962698
000250 28 e9 7d 3d 01 86 1a bc 4d ff cc 3c 6f 06 cb bc
       0.061989933 -0.009431363 0.02502408 -0.024783341
000260 c1 c2 80 bb 6d dc 9a bd 9d 2d 73 bd eb b5 f2 bc
       -0.0039294665 -0.07561574 -0.059369672 -0.02962776
000270 18 20 86 bd b3 86 36 3d 0e 0f 12 3d 39 03 fd bc
       -0.0654909 0.044562053 0.03565889 -0.030885326
000280 c9 df 95 3d 1e c5 60 bd 01 14 e6 3c cf f0 84 bc
       0.07318074 -0.054875486 0.02808571 -0.016228108
000290 b4 00 d7 3c 36 79 26 3c 18 08 87 3d b1 c4 1b bd
       0.026245452 0.010160735 0.06593341 -0.038029376
0002a0 fa 5a a3 3c 89 fb 80 ba 26 43 af 3d 05 3f 02 3c
       0.019940842 -0.0009840588 0.085577294 0.007949595
0002b0 2d 68 82 bd f9 ee 26 bd d7 f2 d6 3c 7f ed e5 bc
       -0.06367526 -0.040755246 0.026238842 -0.028067349
0002c0 43 8d 3c bd ab 51 97 bb ed d2 5b 3d ed a1 3b 3d
       -0.046033155 -0.00461789 0.05366795 0.04580872
0002d0 41 e3 5b 3c 35 b4 2e 3c 5b fe 62 3d 37 35 5b bd
       0.013420881 0.010663082 0.055418354 -0.053517547
0002e0 32 bc 8c bd af 77 14 3d 67 a1 8c bd de a9 b2 3b
       -0.06871833 0.03624695 -0.068667226 0.0054523787
0002f0 43 e5 95 bd 79 c3 d6 3b 79 b4 90 bd 8f 1b 3e bd
       -0.07319119 0.006554064 -0.070656724 -0.046413
000300 28 22 d9 3c fc b7 0d 3d 23 e3 55 bd 9a 07 62 3d
       0.026505545 0.03459929 -0.052218568 0.05518303
000310 77 d4 4c bd e0 59 ab 3c 1c a9 b8 bd 73 47 10 bd
       -0.05000731 0.02091688 -0.0901663 -0.03522439
000320 97 88 6a bd 18 82 7e bd af ee c7 3c 4e e8 69 bd
       -0.05725917 -0.062135786 0.024405805 -0.05710631
000330 67 55 7b 3d 7b f4 87 bd 39 8b 7c bb cc a3 04 3d
       0.061360743 -0.06638428 -0.0038535132 0.03238277
000340 ca b8 e7 3c b1 62 7a 3c bd 48 b6 3c 40 d3 7a 3d
       0.028286356 0.015282319 0.022251481 0.06123662
000350 5d 87 e7 3c db e3 8d bc e0 2b 96 3b 8f e5 b4 3c
       0.028262788 -0.017320564 0.004582867 0.022082118
000360 e1 d6 7a bd ec ac 30 bc 4f 10 92 3c 17 d2 00 3d
       -0.06124008 -0.010783415 0.017830042 0.031450357
000370 7a 5d 1d bc 47 45 89 bd 52 d8 71 bd b1 74 46 3d
       -0.009604806 -0.06702667 -0.05904419 0.04845113
000380 6c c6 60 bd b4 b3 2f 3d 3e de be 3c bd 4c 3d 3d
       -0.05487673 0.042895988 0.023299333 0.04621576
000390 46 48 f6 3c 60 87 c1 bb 76 33 81 3d 4f 11 d5 3c
       0.03006376 -0.0059060305 0.063086435 0.02600923
0003a0 1a f4 07 bc fe b5 b7 bb ef ae 72 bd be 72 81 bc
       -0.008297944 -0.005606412 -0.05924886 -0.015801784
0003b0 7d ee 28 bd b8 9e 04 3d da 94 18 3c a8 ed 29 3d
       -0.041243065 0.03237793 0.009312833 0.041486412
0003c0 02 c7 5c 3d 54 be ba bb 5b e4 46 3d 0d bd 0b 3d
       0.053900726 -0.0056989584 0.04855762 0.03411584
0003d0 91 3d 7a bb f7 49 00 bc cf 10 56 3d 62 34 88 3d
       -0.003818367 -0.007830135 0.052262124 0.06650616
0003e0 f8 5f 95 bc f2 2d e7 bc 69 32 31 3d 6f ef 18 3d
       -0.018234238 -0.02822015 0.043260965 0.037337717
0003f0 ca c0 c5 3c 63 34 08 bd 70 f7 d5 bc f4 01 f3 3c
       0.02413978 -0.033253085 -0.026118964 0.029664017

conv2.bias f4 [16]
000000 31 49 5a 3c 16 71 62 3a 73 59 6b 3d 78 61 78 3c
       0.013323114 0.0008638067 0.057458352 0.015159957
000010 c1 19 2c bd b1 c4 65 bd 85 42 80 bd 95 89 54 bd
       -0.04201675 -0.056095783 -0.062626876 -0.05188902
000020 3d 00 b0 3c 95 4b a4 bc 7c ab 60 bd 56 70 0d 3d
       0.021484489 -0.020055572 -0.05485104 0.03453096
000030 59 d9 97 3c f3 3a 1d 3d bd 42 b7 bd d5 7e 61 bd
       0.018536257 0.038386296 -0.08948276 -0.055052597

conv3.weight f4 [32, 16, 5, 5]
000000 8d 6b 46 bb ac 94 f0 bc 91 c5 52 bc 11 f7 22 3d
       -0.0030276508 -0.029367767 -0.012864486 0.039786402
000010 ec 60 09 bc 9d 0c 32 3d e1 b6 e2 3c 03 e7 0a bd
       -0.008384924 0.04346906 0.027675094 -0.033911716
000020 9b b4 f1 3c be da 3b 3d fe dd 05 bd b2 b3 a7 3c
       0.029505065 0.045862906 -0.03268241 0.020471428
000030 72 05 81 bb 1b 91 ad bc 4d 60 05 3d 77 a1 99 3c
       -0.0039374167 -0.021187356 0.032562543 0.01875375
000040 d3 01 fc 3c ae 61 5b bc f2 96 bc bc 57 3a 05 bb
       0.030762589 -0.013389988 -0.023021195 -0.0020328963
000050 c9 a8 b1 3c 39 70 26 bd 2b 6c df 3c 89 82 66 3b
       0.021686928 -0.040634368 0.027273258 0.003517302
000060 a3 09 49 3c dd bc 23 bd b5 5d 1a 3d 36 84 36 bd
       0.012270364 -0.039975036 0.037687022 -0.04455968
000070 28 4e 84 39 7a df 2c bd b4 69 31 3c 0b 6a ec 3c
       0.00025235233 -0.04220531 0.010828424 0.028859159
000080 28 f5 1e 3d 0a be e0 3c f9 65 47 bc b8 f7 84 bc
       0.038808018 0.027434368 -0.012170308 -0.016231403
000090 53 0d 49 bd 6b a7 93 bc 85 84 c6 bc e6 4f 21 bd
       -0.049084973 -0.018024167 -0.024233112 -0.039382838
0000a0 2e 50 35 bd 94 12 ff 3c 65 52 44 3c 09 dc dc bc
       -0.04426592 0.031136788 0.011982535 -0.02696039
0000b0 87 aa e3 bc cb f5 0e bd 52 9d 0e bd dc 30 28 3d
       -0.027791275 -0.034902375 -0.034818 0.04106222
0000c0 7a d2 32 bd 64 ca 1e bd 94 92 68 bb 13 32 71 3b
       -0.043657757 -0.038767233 -0.0035487758 0.0036803528
0000d0 a1 6b 1a bd 47 bd 66 3c 6d 14 f0 3c 8b 81 63 b8
       -0.0377003 0.014083213 0.029306615 -5.4241664e-05
0000e0 f8 53 43 bd 52 f9 0a 3d 59 bf 37 3c c0 05 b7 bb
       -0.0476875 0.033929177 0.011215054 -0.0055854023
0000f0 b9 84 93 bc ab 0b 0e bd 0f c1 92 bc a7 19 85 3c
       -0.018007623 -0.034679096 -0.017914323 0.016247584
000100 a1 1c 35 bd 1d 09 9d bc 71 41 ff 3b 2d 68 64 3a
       -0.044216756 -0.019169385 0.0077897836 0.0008713033
000110 54 79 f8 bb 76 b6 92 ba 53 79 b8 3c 55 77 10 3b
       -0.007582823 -0.0011193294 0.02251879 0.0022043784
000120 89 51 85 ba 56 7b 08 3d 14 b5 d1 3c fc 78 38 bd
       -0.0010171394 0.033320747 0.02559904 -0.045037255
000130 b5 4e 54 bc fb 89 10 bd 84 c9 56 3d d8 af 45 3c
       -0.012958218 -0.03528784 0.052438274 0.01206585
000140 33 5d b1 bc 53 40 a1 ba a7 e8 d8 3b 88 21 5b 3d
       -0.021650886 -0.0012302495 0.006619531 0.053498775
000150 4a 01 a7 bc 46 93 3e 3d 57 f0 d9 3b 3b 29 08 bc
       -0.020386357 0.04652717 0.006650965 -0.008310611
000160 d9 d4 8e ba 40 8c 41 bd e1 44 ce 3c fa 7b ad bc
       -0.0010897174 -0.047252893 0.025179328 -0.02117728
000170 28 63 ae bc 6e d9 31 3d 2f 0b 2c bd c6 55 c2 bc
       -0.021287516 0.043420248 -0.042002853 -0.02372254
000180 02 b8 e2 bc a9 47 0d 3d 35 bc 19 3c 79 f4 fe bc
       -0.027675632 0.03449217 0.009383251 -0.031122433
000190 3f 5d 46 bc b7 dc 80 bd 87 a0 0a 3d 49 07 10 3d
       -0.012107193 -0.06292098 0.033844497 0.035163198
0001a0 8c b2 75 3c af 8e 48 bc c6 f4 56 3c cc 34 86 ba
       0.014996182 -0.01224105 0.013119882 -0.0010239123
0001b0 e9 27 90 3b 24 b1 80 bc 45 7d 44 3c cd 79 73 bb
       0.004399289 -0.015709467 0.011992757 -0.0037151456
0001c0 25 25 6a bc c5 d7 47 3c 21 b0 45 bd 6b ac 5f 3b
       -0.0142910825 0.01219744 -0.048263673 0.0034129869
0001d0 90 68 3f bd 99 f6 e9 bc 04 ab c6 3c 2b dc 22 bd
       -0.046730578 -0.02855997 0.024251468 -0.03976075
0001e0 89 9d 8f bd c1 d9 d7 bc c0 80 bf bc 39 f0 a8 bc
       -0.07012469 -0.02634895 -0.023376822 -0.02062236
0001f0 cf 51 d6 bc d7 5b 5f bd b2 03 d2 3c 18 52 c2 bc
       -0.026162056 -0.054530945 0.025636528 -0.023720786
000200 d5 ee 64 bc d1 07 e1 bc e8 85 86 bb bc ad 28 3d
       -0.013972958 -0.027469547 -0.0041053183 0.04118131
000210 18 7c 78 3c c4 d2 c9 3c e3 b4 80 3c 07 1f 43 3d
       0.015166305 0.024636634 0.015711254 0.04763701
000220 8b 07 3d bd b9 43 e6 bc cf 5c ea bc f1 4c 5a bc
       -0.04614977 -0.028108465 -0.028608708 -0.013324008
000230 0b e2 0f bd 9c c7 6f bc 81 83 12 3d 7e 7f d8 3c
       -0.03512768 -0.014634993 0.035769943 0.02642798
000240 e9 08 e3 3c b3 97 39 bd 03 99 ba bc d4 e3 12 3d
       0.02771421 -0.045310687 -0.02277804 0.035861805
000250 94 36 e3 bc c9 e9 5d 3d ab bb 9c 3d aa 2d dd bc
       -0.027735986 0.054178033 0.07652982 -0.026999313
000260 c8 90 88 bc 34 9e 47 bc e3 36 24 bc 00 6d 66 bc
       -0.0166706 -0.012183715 -0.010022852 -0.014064074
000270 59 ad 07 bc fc 62 fe bc e4 c7 c5 b9 4d f5 5a 3d
       -0.008281075 -0.031053059 -0.00037723698 0.053456593
000280 98 f1 87 3c 76 04 25 ba b5 8b bd 3c dd 0c 20 3d
       0.016594693 -0.0006294915 0.023137907 0.039074767
000290 5a 03 7b bb be b4 04 bc 32 bb 0b bd 98 ee 2b bd
       -0.0038301558 -0.008099733 -0.03411407 -0.041975588
0002a0 fb 7d 3c 3d 49 3a 80 bc ce f2 41 3a 18 59 1b bd
       0.04601858 -0.015652793 0.00073985464 -0.037926763
0002b0 38 7d 09 ba 4c 25 03 3c 80 0b 36 bc d2 69 35 3d
       -0.00052447943 0.008004498 -0.01111114 0.04429037
0002c0 35 15 99 bc 9b 08 37 3d 82 dd e8 bb 6d ff 2a bd
       -0.01868687 0.04468594 -0.007106484 -0.0417475
0002d0 ae 4c 21 bd f9 22 2b 3c ab b2 35 3a 27 f5 02 3d
       -0.039379768 0.01044535 0.00069312257 0.031972077
0002e0 ec ef 37 bd c0 e6 c1 3c f1 a5 ec 3c 9d 5e 3f bd
       -0.04490654 0.0236696 0.02888772 -0.04672109
0002f0 33 fe 1b 3d eb f9 a9 3c 96 56 a2 3c 05 f5 98 3c
       0.03808422 0.020749053 0.019816678 0.018671522
000300 12 c5 34 bd 50 c7 1f 3a c8 f1 3a bc 90 1d 65 bc
       -0.044133253 0.00060950685 -0.011410184 -0.013984099
000310 ce f5 4c bd f5 18 24 3d c6 27 63 bc 87 ba 50 bb
       -0.050039105 0.040062863 -0.013864463 -0.003184946
000320 30 f4 57 3d c8 f0 9a bd 39 f5 8f bc db ec 1d bd
       0.05272311 -0.07565457 -0.017572986 -0.03855596
000330 7e 60 40 3c 11 01 8d bb f9 f3 04 bd f4 4d 19 3d
       0.0117417555 -0.0043031056 -0.032459233 0.037427858
000340 56 52 7f 3c 10 17 53 3c 33 59 5a 3c 20 46 0e bd
       0.015583595 0.0128839165 0.013326931 -0.034734845
000350 5c 19 46 3b 04 db 0a 3d 8f b5 01 3d c2 0b 15 3d
       0.0030227518 0.033900276 0.03166729 0.036388166
000360 03 e3 60 bd 8d 80 b6 ba ba 2e 5b bd bb 55 0b 3d
       -0.054903995 -0.0013923809 -0.05351136 0.034017306
000370 b0 6f d8 3c b9 0f 4b bd c7 a5 b8 3c 0f 16 52 3d
       0.026420444 -0.04957554 0.022539986 0.051290568
000380 7e 63 8a bc cc cf 12 3d a0 3c 41 bc 62 68 26 3c
       -0.016893145 0.0358427 -0.011794239 0.010156723
000390 dc 07 06 bc a6 59 53 bd 8d fd be bc aa 1f ae bc
       -0.008180585 -0.051599167 -0.023314262 -0.021255333
0003a0 07 2d 8b 3c 79 a9 2a bc 07 ba 85 bc 63 91 cd bc
       0.016989244 -0.010416382 -0.016324056 -0.02509374
0003b0 89 ed 07 3d 0f 02 f9 3c 75 5d b7 bc 6a 44 c4 bc
       0.033185516 0.03039649 -0.022383431 -0.023958404
0003c0 02 d6 09 bb f3 56 40 bd 4d 6b b2 bc 44 5e 88 bc
       -0.00210321 -0.04695792 -0.02177968 -0.016646512
0003d0 56 12 4c 3c c0 7e 4e 3c 97 7f 9e 3c 65 ee 01 bd
       0.0124555435 0.012603462 0.019347949 -0.03172149
0003e0 b5 83 49 3c f5 af b5 bc ff 1a 22 bd 43 ff 43 3d
       0.012299468 -0.02217863 -0.039576527 0.04785086
0003f0 2b 1a 49 bc 11 57 0a bc 01 49 f4 bc f5 99 da 3c
       -0.012274305 -0.00844361 -0.029819967 0.02668474

conv3.bias f4 [32]
000000 a4 ca fd 3c 57 71 bb bc 8a a1 5a 3d 82 b2 fb bc
       0.030980416 -0.022881193 0.053376712 -0.030724768
000010 b4 68 5d 3e 8e 9a 1a 3d 27 9c 20 3e a0 54 21 3e
       0.21621972 0.03774505 0.15684567 0.15754938
000020 f7 fb dd 3c 0a ad 14 3d 16 f0 0b 3d 93 89 57 bd
       0.027097685 0.036297835 0.03416451 -0.052621435
000030 57 ce 19 3d ee 47 0e 3e 38 66 38 3e d1 5b 94 3b
       0.037550297 0.13894626 0.18007743 0.004527547
000040 b3 09 0f bd 21 01 3d bd c0 53 80 ba da 72 80 bc
       -0.03492136 -0.046143655 -0.0009790584 -0.015679765
000050 3e 21 c7 3d 9f 64 c6 3c a0 af 3a 3d 90 a3 69 3e
       0.09723137 0.024217902 0.045577645 0.228163
000060 45 c2 da 3b 41 35 59 3e a0 cd c8 ba e6 5c 4e bd
       0.0066759908 0.21211721 -0.001532007 -0.050381564
000070 a9 78 8e bd ce 05 3c 3e 79 dc ae 3c a0 7b 76 3c
       -0.06956608 0.1836159 0.021345364 0.015044123

linear1.weight f4 [75, 32]
000000 b3 93 2f 3e f2 e9 04 be e0 d3 43 3e d4 62 32 be
       0.17146187 -0.12979868 0.19123793 -0.17420512
000010 a8 8a 69 bd 6c 35 36 bd 52 57 31 be f7 3e 01 be
       -0.057017 -0.04448454 -0.17318466 -0.12621675
000020 41 00 f5 3d eb c5 29 3e c4 42 c7 3d 37 ac 27 3e
       0.11962939 0.16579406 0.097295314 0.16374288
000030 a1 4d 0b be 93 a8 c9 3c 6a 4b ba 3d 41 d7 18 be
       -0.13603832 0.024616515 0.09096415 -0.14925863
000040 b7 48 32 be 76 c3 0e 3d e1 c0 28 3d 79 93 07 bc
       -0.17410551 0.034854375 0.04119957 -0.008274906
000050 85 b1 0b be 9f a1 03 be 44 d7 31 be 09 3e 1a be
       -0.13641937 -0.12854622 -0.17367274 -0.15062727
000060 8c 36 fb bd 65 26 f0 3d 32 b5 a2 bd 62 8f 16 be
       -0.12266263 0.11726073 -0.079447165 -0.14703134
000070 d8 d7 02 be 34 aa 2a be 48 84 9c bc f5 46 0a be
       -0.1277765 -0.1666649 -0.019106045 -0.1350363
000080 4e 4b 12 be d0 50 c5 bd 23 3e d2 3d 5b 01 b4 3d
       -0.14286539 -0.096345544 0.10265758 0.08789321
000090 01 15 bf 3c ce 8d 4d be 0a 7d 37 3e 0f 96 92 3d
       0.023325445 -0.20073625 0.17918792 0.07157528
0000a0 77 69 91 3c a0 4b 3d be 74 34 aa 3d 97 09 f5 3c
       0.017750485 -0.1848588 0.08310786 0.0299118
0000b0 a9 a6 88 bc 24 55 cc bc ff 70 61 3d 7c 04 1e be
       -0.016681032 -0.024942942 0.055039402 -0.15431398
0000c0 f6 62 0b be c1 e0 17 be c8 a7 d7 3c 84 fe de 3d
       -0.1361197 -0.1483183 0.026325122 0.10888389
0000d0 2e 28 43 3e f5 bf 0e be 6f 40 c1 bb 4e 45 42 3e
       0.19058296 -0.13940413 -0.0058975737 0.1897175
0000e0 30 e8 f7 3d bc d2 48 3e 10 34 2f 3e b0 94 ed ba
       0.12104833 0.19611639 0.17109704 -0.0018125977
0000f0 34 f0 2b 3e 38 37 a1 bd e0 ee 09 bd 11 2e 1b be
       0.16790849 -0.0787186 -0.033675075 -0.15154292
000100 10 40 f8 bc 1e 72 c5 bd d4 d9 35 bd da 7d 91 3d
       -0.030303985 -0.09640907 -0.04439719 0.071040824
000110 74 91 cc 3d 5b ba c8 bd 14 bc d1 3d 39 9f d8 bd
       0.099886805 -0.098011695 0.10240951 -0.10577244
000120 f9 e5 1c be f6 ea 5b bd f7 f5 d8 bc d0 22 77 bc
       -0.15322103 -0.053690873 -0.026484473 -0.015083984
000130 dc f8 06 3e b5 53 36 be df 84 f1 3d 84 81 e9 bd
       0.1318087 -0.17805369 0.11792921 -0.11401656
000140 60 b7 03 bc bc 99 74 3c 6b 50 3c 3d 0d ab 44 bd
       -0.0080393255 0.014929231 0.04597513 -0.04801469
000150 da 2f 3c be 60 bb 1e be b1 6f 11 be c7 97 a0 bd
       -0.18377629 -0.15501165 -0.14202763 -0.07841449
000160 3c 98 04 3e b1 e7 25 3e e0 5e d5 bb bc 9a 57 3c
       0.12948698 0.16201665 -0.006511554 0.01315945
000170 54 d1 a6 bd c0 f9 cf 3d 67 05 e0 3d 33 73 03 3e
       -0.08145395 0.10155058 0.109385304 0.12836914
000180 88 a8 43 3d 04 54 b1 3c ac a3 08 be 64 cd b1 3a
       0.047768146 0.021646507 -0.13343686 0.001356524
000190 d4 d6 c2 bd 81 14 c0 3d 19 a6 25 3e 36 d6 ea 3d
       -0.095136315 0.09378911 0.16176642 0.11466639
0001a0 43 b9 82 bc f0 d6 4f 3d 41 b7 07 3e 91 37 64 3d
       -0.01595748 0.05074209 0.132535 0.055717055
0001b0 14 da 28 3d 9f 57 77 3d d2 e2 c4 bd a7 12 f8 3d
       0.0412236 0.060386296 -0.09613575 0.12112933
0001c0 3d c1 64 3d 47 69 d1 3d 1f 76 04 be ef 42 99 bd
       0.05584835 0.10225158 -0.12935685 -0.0748347
0001d0 83 80 ab bb db e8 63 bd 11 87 ad 3d ba 2e 10 be
       -0.0052338257 -0.05564199 0.084730275 -0.14080325
0001e0 af 64 04 be 4d 90 99 3b c3 7a 75 bd f9 53 8a bd
       -0.12929033 0.0046863914 -0.059931528 -0.06754298
0001f0 5e 90 03 bd 19 57 f7 bd 91 8e 1e be e1 58 0f be
       -0.0321201 -0.120771594 -0.15484072 -0.13998748
000200 16 2d 14 be 44 9b 30 be 30 12 58 be 8f fb 8c bd
       -0.14470324 -0.17246729 -0.21100688 -0.068839185
000210 0d 62 d0 3d 15 ac f7 bd fa a4 f3 bd a1 47 1c 3e
       0.10174952 -0.12093369 -0.11896701 0.152617
000220 96 88 17 be 6f 26 26 be 65 12 11 bd 42 08 a5 3a
       -0.14798197 -0.16225599 -0.035417933 0.0012590962
000230 b5 3b 79 bd 06 c7 ac 3d c1 e3 1f 3e b3 0e 1c 3e
       -0.060847957 0.08436398 0.15614225 0.15239982
000240 f0 e5 21 3d fc 3c a0 bd 92 3b 01 3d 56 48 ae bc
       0.039525926 -0.07824132 0.03155095 -0.021274727
000250 90 48 ec 3d d6 3a c2 3d d1 6c 9d 3d 0e 19 54 3b
       0.11537278 0.09483878 0.07686771 0.0032363567
000260 09 de ca 3d eb 72 af 3d b9 e0 77 3c 8a 8d ec 3d
       0.09905631 0.08566841 0.015129262 0.11550434
000270 5e 63 3f 3e ad e1 14 3e 6d e8 02 3e 15 0a c8 3d
       0.1869025 0.14539213 0.12783976 0.09767548
000280 0d 9f da bd d6 20 73 bd 27 64 f7 bd ed 17 64 3d
       -0.10674868 -0.059357487 -0.120796494 0.05568688
000290 e4 90 2d 3e 28 d7 36 3d 99 46 1b 3d df 6f fe bc
       0.16949803 0.044638783 0.037909124 -0.031059204
0002a0 9e 43 2a 3d 6f ea e6 3d 32 08 58 be 23 b1 36 bd
       0.04156839 0.112751834 -0.21096876 -0.044602524
0002b0 7c 37 91 bd ed 78 d5 bc 12 68 05 be 72 94 09 3d
       -0.07090661 -0.026058638 -0.13027981 0.033588834
0002c0 84 77 4e 3c 8d 2c 36 39 53 12 3a bd 10 bc e1 bd
       0.012601737 0.00017373469 -0.04542763 -0.11022198
0002d0 70 98 cf 3d 2e a6 9b bc f8 a5 26 3d 7a d3 31 3d
       0.10136497 -0.01900014 0.040685624 0.04341457
0002e0 68 0a 14 be 9b 63 aa 3d 24 5b 26 be 63 77 21 3c
       -0.14457095 0.083197795 -0.16245705 0.009855124
0002f0 a4 a6 bb 3c 0e dc fe 3d 3d e5 56 3d 0d 6e a7 3d
       0.022906609 0.12444316 0.052464712 0.081752874
000300 68 78 8d 3d d7 ae 28 be 30 9a cf 3d 94 d7 d0 bd
       0.06907731 -0.16472946 0.10136831 -0.10197368
000310 20 d5 27 3d ce 2b 82 bd 05 8a 02 ba 51 60 4c 3d
       0.040974736 -0.06356011 -0.0004979673 0.049896542
000320 5e a1 8d bd b0 fd 57 3c 3c 46 1f be b8 f5 3f bd
       -0.06915544 0.013183042 -0.15554136 -0.046865195
000330 a5 92 01 be f6 b9 b9 3d b2 f1 1d be 5f d2 d6 3d
       -0.12653597 0.09068672 -0.1542423 0.10489344
000340 c8 54 ae 3d a6 0c 4d bd db 35 2a be 7c 1c 99 3d
       0.085122645 -0.05006089 -0.16622107 0.07476136
000350 9e 81 39 bd b9 b3 68 bc 80 28 2e 3e 39 59 06 be
       -0.04528963 -0.0142030055 0.17007637 -0.13119973
000360 41 ff 1b be 9c 41 12 3e 79 d5 54 3c 8b 94 0b be
       -0.1523409 0.1428284 0.012990349 -0.13630883
000370 c2 45 c1 bc 56 f3 ee 3d 60 f2 0b 3d 76 21 f9 bd
       -0.023592833 0.116675064 0.034166694 -0.12164585
000380 dc e4 88 3d 0f e5 00 be a9 6b 36 be c2 56 d1 3d
       0.066842765 -0.12587379 -0.17814507 0.10221626
000390 75 dc 8e 3d 7a ea 3b be 04 d7 4e 3d a2 88 14 3e
       0.069756426 -0.18351164 0.050498024 0.14505246
0003a0 59 c4 75 bc 24 c7 a7 bd f9 6c b1 3c 6c b3 0b bd
       -0.015000426 -0.0819228 0.021658408 -0.034106657
0003b0 7a 16 d9 bd 3e 66 a3 bb 5f d5 2a bd 2e 9f f2 3b
       -0.1059999 -0.0049865535 -0.041707393 0.0074042296
0003c0 05 35 d4 3c 7a 02 1a 3e 64 ef c6 3d 15 b1 eb bd
       0.025904188 0.15040007 0.09713629 -0.11508385
0003d0 1a 29 c2 bd 9a 9e 19 be 97 4a a6 3c b9 2a 56 3e
       -0.09480496 -0.15001908 0.02029924 0.20914735
0003e0 70 76 d2 bd a1 0e 51 3e 5c 1c 9c 3d 64 cc d7 3c
       -0.102764964 0.20415737 0.076225966 0.026342578
0003f0 d9 29 85 bb 8c 45 f0 bb 23 5d a3 bd f1 b5 26 3e
       -0.0040638265 -0.0073325094 -0.07976749 0.16280343

linear1.bias f4 [75]
000000 f5 d9 09 3e 9f 0f 60 3e 04 74 2e be bf b8 e1 bd
       0.1346205 0.21880959 -0.17036444 -0.11021566
000010 63 fd 5b 3e 5f c7 57 3e 21 c4 fc bc f5 c7 7a 3e
       0.21483378 0.21072148 -0.03085524 0.2449034
000020 f6 0f 61 3d 9e 98 c3 3c 64 a8 98 bc f5 33 38 bd
       0.054946862 0.023876484 -0.018634982 -0.044971425
000030 94 96 fa bb db e6 04 be 77 f3 e0 bc e5 60 c3 3d
       -0.007647345 -0.1297869 -0.027459843 0.095399655
000040 cf 47 98 bc bb 5b 1c be dd 02 3d 3e 09 4d 24 3e
       -0.018588929 -0.15269367 0.18458124 0.16045012
000050 9d d7 95 bd e0 af 2e be 73 83 b7 3d 2c 88 0f bd
       -0.073165156 -0.17059278 0.08960619 -0.035041973
000060 fb ec fe bc f2 14 a3 bd c1 80 e2 bd 94 af 5a bd
       -0.03111886 -0.079629794 -0.11059714 -0.0533901
000070 67 a8 6f 3d de 74 ac bd 5c 9a 1c 3e 9a 7b 99 3d
       0.05851021 -0.08420728 0.15293258 0.07494278
000080 12 0c e4 3d 3a b0 73 bd d4 5c bb bd ad ba 89 bd
       0.11135115 -0.059494235 -0.09148565 -0.06725059
000090 d4 da 74 3e a8 31 86 3d b5 cd c6 3d 57 3c 1e be
       0.23911601 0.0655244 0.09707204 -0.15452705
0000a0 42 0e 8c bd 34 2b 67 3d cf 71 30 be 50 91 14 be
       -0.06838657 0.056437686 -0.17230915 -0.14508557
0000b0 ae 45 86 3e 7d 86 84 3e 97 fb d4 bd 5b 27 2f 3d
       0.26225036 0.25883856 -0.103995495 0.04276214
0000c0 0f bd 9c 3d d8 53 87 3a 1d b2 a1 bd a2 30 86 3e
       0.076532476 0.001032467 -0.078953005 0.2620898
0000d0 02 9e 14 be 25 7b 8f bd 13 2c c1 3d 2b 2c 7d bd
       -0.145134 -0.0700591 0.094322346 -0.0618097
0000e0 62 7c 3d bd d0 b7 48 3e db 4b 32 bd dd aa b5 bc
       -0.0462612 0.19601369 -0.043529373 -0.0221762
0000f0 c3 0b f6 bd c9 81 01 be 6d 0f c0 bd bf 51 05 3e
       -0.12013962 -0.12647165 -0.09377942 0.13019465
000100 7c 0e ee 3d 1a 4a 24 be 06 a0 de bd 23 33 44 3e
       0.116238564 -0.16043893 -0.10870366 0.19160132
000110 ee 29 c4 bd 10 6a 17 3e 3b af f2 3c 21 67 2c bd
       -0.0957831 0.14786553 0.029624572 -0.04209054
000120 43 02 06 3e 66 21 19 3b 83 8f 04 3e
       0.130868 0.0023365854 0.1294537

linear2.weight f4 [1, 75]
000000 3f 39 76 3e 69 94 90 be f5 57 0d bd 16 82 04 be
       0.24045275 -0.28238228 -0.03450771 -0.12940249
000010 2d 6a b8 be 08 2a 94 be c7 a5 dd 3d cc a8 96 be
       -0.36018506 -0.28938317 0.10822635 -0.29425657
000020 6e 74 9e bd 75 a6 c2 3c 07 c5 78 3c 25 17 e7 3d
       -0.07737051 0.023761014 0.015183694 0.11283711
000030 08 3e e9 3d ac 3b 2e bd 09 d9 14 3e 88 5e 33 bd
       0.11388785 -0.042537376 0.14535917 -0.043791324
000040 ff 1f 87 bd c9 3e c8 bd ff d8 79 be 6e 27 56 be
       -0.065979 -0.097776 -0.24399184 -0.20913479
000050 35 40 50 bd d0 0a be 3d 53 e6 d1 bd e3 42 43 bc
       -0.050842483 0.09279406 -0.10249009 -0.0119178025
000060 fd f7 c8 bd 57 4c 1a 3c 64 73 ff bc 4c 60 93 3c
       -0.09812925 0.009417615 -0.031182952 0.017990254
000070 a8 50 10 3e 56 f8 17 3d 95 a3 41 be 72 e1 c3 3d
       0.14093268 0.037102066 -0.18910058 0.09564485
000080 41 2b c9 3d 84 c2 c4 bc 3a 7f 26 bd a3 60 a1 bd
       0.09822703 -0.024018534 -0.040648676 -0.0787976
000090 c9 ce 82 be cf 7a d6 3d d7 a6 13 be 37 e8 16 bd
       -0.2554839 0.10472643 -0.14419113 -0.03684255
0000a0 63 5a 9f 3d 1f 90 c5 3d ce e8 13 bc 78 c3 ed 3c
       0.07780912 0.096466295 -0.009027673 0.02902387
0000b0 66 12 db be eb 25 d5 be 10 20 fe 3d 8f 23 47 3c
       -0.42787474 -0.41630492 0.12408459 0.012154474
0000c0 01 c4 c4 bc 27 48 bf 3d 3f 93 68 bc 46 9b 9f be
       -0.024019243 0.09339934 -0.014195262 -0.31173152
0000d0 85 9e 01 be 38 a9 98 bd 0d 2a df bd ae 7c f1 3d
       -0.12658127 -0.07454151 -0.108966924 0.11791359
0000e0 17 53 0f 3d d9 43 98 be a6 b7 07 3e 65 96 ee 3c
       0.03499135 -0.29739264 0.1325365 0.029124448
0000f0 2b d6 8c 3c e9 c4 a0 3d d0 8b 17 bd 37 a6 03 be
       0.017191967 0.07850058 -0.03699857 -0.12856375
000100 c2 86 af 3c 6c 80 9b 3d d9 b4 ed 3d e5 75 45 be
       0.021426562 0.07592854 0.116067596 -0.19283254
000110 8a 17 1f bc 6b 8c 01 be b7 46 0b 3c 27 dd 71 3d
       -0.009710202 -0.12651221 0.008500746 0.059048798
000120 7f 5d 45 be 9b af 0f be 5b 2e 24 be
       -0.19273947 -0.14031832 -0.16033308
