model_state_h.pth (torch, 79180 bytes, 9 tensors)

conv1.weight f4 [8, 1, 5, 5]
000000 f1 77 2e be fc 46 1b bd 0f f8 5b 3b 7d 9d 34 be
       -0.17037942 -0.037909493 0.0033564602 -0.17638202
000010 2b a2 23 3e 73 99 52 be 70 89 4d be 77 86 dd bd
       0.15979831 -0.20566349 -0.2007196 -0.10816663
000020 c5 f3 c2 bb a4 60 b7 3d d4 c7 ec 3d 67 0a c8 bd
       -0.0059494697 0.089539796 0.11561552 -0.09767609
000030 19 be 82 3d 2d 32 0f bd 12 0a 32 be d8 d4 32 be
       0.063839145 -0.03495996 -0.17386654 -0.17464006
000040 18 c8 5d 3c fc d4 05 3d e5 59 de bc 43 07 27 be
       0.013536476 0.03267382 -0.027142474 -0.16311364
000050 b3 ec 64 be 4a 27 5d 3d cf 06 8b 3c f8 2d 51 be
       -0.22355919 0.053992547 0.01697102 -0.20427692
000060 94 c4 15 be a0 c5 0f be 12 44 d3 bd 80 41 00 bc
       -0.1462577 -0.14040232 -0.10315718 -0.007828116
000070 92 6a 24 3d 90 4d 58 3d ec ca 09 be b0 c1 fe 3c
       0.040140696 0.052808344 -0.13456315 0.031098217
000080 62 d5 48 bd 5d ab 68 3e 08 02 80 3d df 4c 37 be
       -0.049031623 0.2272162 0.062503874 -0.17900418
000090 a3 d1 a1 3d 6f 5e dd bd 1c 5e 0b bd 82 32 2a 3e
       0.07901313 -0.108090274 -0.034025297 0.1662083
0000a0 7a 81 2f 3d 6d 86 d4 3d 4d 17 ba 3d 88 8c 60 3d
       0.042848088 0.10377202 0.090864755 0.05482152
0000b0 7e 7e fc bd 02 14 50 3c 64 c0 5a bd 35 d4 16 3e
       -0.12328814 0.012700083 -0.053406134 0.14729388
0000c0 9c 8e 2d bd 1c 6b 01 3e 67 6b 0b be c8 cb c2 3d
       -0.04237233 0.12638515 -0.1361519 0.095115244
0000d0 c2 7f 48 3e 96 8a a3 3d 32 b4 40 be 62 cd 6b bd
       0.19579986 0.079854175 -0.18818739 -0.057568915
0000e0 d9 37 15 3e 09 0b c2 bc b1 86 b4 3d 48 39 2c be
       0.14572085 -0.023686903 0.08814753 -0.16818726
0000f0 76 9d fd 3d 7a 85 2a 3e 8b c2 1f 3e 8a e1 11 be
       0.12383549 0.1665248 0.15601556 -0.14246193
000100 29 67 17 be 17 84 9c bc 5d d6 34 bc 9c 27 92 3d
       -0.14785446 -0.019105954 -0.011037436 0.07136461
000110 90 46 21 be d0 76 cf bc 50 b3 4f 3e ab 44 13 3e
       -0.15749574 -0.025325209 0.20283246 0.14381664
000120 d9 51 c7 3d 8a 96 36 3e 4e 5e e9 bd db 9a fd bd
       0.09732408 0.17830864 -0.1139494 -0.12383052
000130 9a 91 4e 3e 02 fd a9 3d 2a 90 75 3d b1 4b 55 3d
       0.2017273 0.083002105 0.05995194 0.052074138
000140 42 7d 16 3e 18 e9 3b 3e 87 5e 35 3d 45 ae 25 3d
       0.1469622 0.18350637 0.0442796 0.0404494
000150 3d a5 06 bb 06 54 45 3e 4a 46 50 3a bf 98 dd bd
       -0.0020545267 0.19270334 0.0007945044 -0.1082015
000160 60 18 27 be 52 83 4a be 89 cb 07 be 2e 1f 1f 3d
       -0.16317892 -0.19776657 -0.13261236 0.038848095
000170 1b 68 3b be 06 44 be 3d fb d6 5c be 72 2f af bd
       -0.18301432 0.09290318 -0.21566384 -0.08553971
000180 4d 79 07 be 60 d8 0e 3e 89 15 0d be c7 ff e7 bd
       -0.13229866 0.13949728 -0.13777746 -0.113280825
000190 0e 06 46 3d 71 a8 88 3d 85 71 a4 bd 1b e2 85 bd
       0.048345618 0.06672753 -0.08029465 -0.06537267
0001a0 2b 7d 2b be 60 70 f2 bd 7c a8 e6 3c 6d 63 d5 3c
       -0.16746967 -0.1183784 0.028156511 0.026048386
0001b0 53 fc af bd a5 bd 61 be f0 28 4d bd 7e 30 95 3d
       -0.08593049 -0.22045 -0.05008787 0.0728464
0001c0 49 db 43 be e1 a1 01 3e df f0 20 bd 66 2c 1b be
       -0.1912662 0.12659408 -0.039292213 -0.15153655
0001d0 2b 20 f3 bd 4a 67 47 be 9a e8 9e 3d 75 ef 8b 3c
       -0.1187137 -0.19472995 0.07759209 0.017081955
0001e0 c2 73 d0 3d 61 31 16 3e 74 d5 29 be 1e e2 6e bc
       0.10178329 0.14667274 -0.16585332 -0.014580278
0001f0 35 07 e6 3c 76 f8 06 3d eb 63 82 bd 33 00 9e 3d
       0.028079608 0.032951795 -0.06366714 0.07714882
000200 bd 49 53 be 6c 73 68 be 01 98 b2 3d 21 8d d9 bd
       -0.20633598 -0.2270028 0.08720399 -0.10622621
000210 41 1f 22 be 29 71 53 bc 5a 48 6b be 53 b1 c2 3d
       -0.15832235 -0.012905397 -0.22976819 0.09506478
000220 f1 70 36 3e da 65 9d 3d 81 a6 af 3d d1 4f 24 bc
       0.17816521 0.07685442 0.0857668 -0.010028795
000230 d7 76 ed bc fa 08 81 3d fa 2e f8 bd 37 2d 70 3d
       -0.028987331 0.0630054 -0.12118335 0.05863687
000240 4d 44 59 be d5 53 3a 3e 9d bc 38 be cc 67 b0 3d
       -0.21217461 0.18196042 -0.180407 0.08613548
000250 51 51 8e 3d c5 5f 17 be 3b 22 ad bd 35 50 d7 3b
       0.069491036 -0.14782627 -0.084537946 0.0065708407
000260 5c 84 1d be dd b4 11 3e fb 6f 1c be e1 fe f1 bd
       -0.15382522 0.1422915 -0.15277092 -0.118161924
000270 d1 80 09 be 4a 3b 4d be 1c 82 ce bd 03 5a d1 3d
       -0.13428046 -0.20042148 -0.1008341 0.102222465
000280 e5 66 cc bc eb 00 f6 bd 82 9d d6 bd 6e 0c 21 3d
       -0.024951408 -0.12011894 -0.10479261 0.039318494
000290 23 b3 ae 3d 56 a0 2f bd 45 87 29 3d 1e cc 51 bc
       0.08530261 -0.042877518 0.04138877 -0.012805013
0002a0 29 9d 37 3d b6 9a 21 bd 30 7c 7b 3d 1d 6d 4c 3e
       0.044827614 -0.039454184 0.06139773 0.19963498
0002b0 6e 42 10 be d8 3c 57 3e 49 02 47 3e 08 b9 87 bd
       -0.14087841 0.21019304 0.19434465 -0.06627089
0002c0 87 18 4c be d7 d7 64 3d 37 f8 53 3c 70 e0 28 bb
       -0.19931231 0.055869903 0.012937597 -0.002576854
0002d0 4d 60 5a be 08 64 3e be 99 0c ac 3c 8d 50 3f 3e
       -0.21325798 -0.18592846 0.0210021 0.18683071
0002e0 8c b2 5c 3e 52 de 36 be 08 73 ee bd 29 9e 23 bd
       0.21552485 -0.17858246 -0.11643034 -0.039945755
0002f0 a2 c4 74 3d 75 1f 05 bc 34 3a 7c be b4 56 c4 bc
       0.059757836 -0.008125176 -0.24631578 -0.023967125
000300 7f 00 dc bc 4c 4e b8 3d 35 54 1c 3e 70 d2 5b be
       -0.026855705 0.08999309 0.15266497 -0.21466994
000310 1a 2e fe 3d a3 f5 95 3d f5 6e 13 3d 0a 55 1f be
       0.12411137 0.07322242 0.03599449 -0.15559784

conv1.bias f4 [8]
000000 46 66 06 3d be 2b ea 3d 3d 3c 80 3e ce e0 0f 3e
       0.03281238 0.114341244 0.25045958 0.140506
000010 d7 c2 12 3e ae 50 d3 bc ef 15 26 3e 02 fc 02 3e
       0.14332138 -0.025795307 0.16219305 0.12791446

conv2.weight f4 [16, 8, 5, 5]
000000 aa f3 57 3c 62 c9 59 bd 74 ec b2 3c 4c 56 67 bc
       0.013180653 -0.05317057 0.021841265 -0.014119696
000010 0c f9 45 bb 66 dd 37 3c 78 84 13 bd 9a 02 87 bd
       -0.0030208258 0.011222219 -0.036015004 -0.06592293
000020 09 6e c7 bc 79 e4 01 3d c1 2a 86 bd d8 2d 8e 3d
       -0.024344461 0.03171203 -0.065511234 0.06942338
000030 4f ae 17 3d 5d e9 6c 3c 84 f8 54 bd dd 8c 12 bc
       0.037031468 0.014459935 -0.051994815 -0.008944717
000040 40 d9 78 3d 21 1a 4c 3d 5f f4 00 bc 30 17 52 bd
       0.06075406 0.049829606 -0.007870763 -0.051291645
000050 45 61 05 3d ff 9d 6d bd ce 6b 8b 3d b2 f0 df 3c
       0.032563467 -0.058012005 0.068076715 0.027336452
000060 75 3f a0 3d bb 7d 93 bb cb 09 d7 bc 54 64 a2 3a
       0.078246035 -0.004501072 -0.026249787 0.0012389519
000070 bf 38 aa 3b a2 7c 3a bd af 8a 94 bd 59 cb 86 3d
       0.005194753 -0.045529015 -0.07253014 0.06581754
000080 42 d2 5b 3d e7 bb 64 bd 90 1c 10 3c 1c 88 8c bd
       0.053667314 -0.05584326 0.008795872 -0.06861898
000090 90 8c 98 bd 17 24 59 3c 5a 1b 3e bd 63 70 76 3c
       -0.07448685 0.013253233 -0.046412803 0.0150414435
0000a0 fd 52 f9 3b 2c 0d 9f bc ff b9 78 3d a0 eb 80 3c
       0.00760877 -0.01941546 0.060724255 0.015737355
0000b0 17 55 37 bd ca 21 8f bd be 32 86 bd 0b 7d 1f bd
       -0.044758882 -0.069888666 -0.06552647 -0.03893761
0000c0 30 b0 95 bc c1 a4 68 3c 52 0f b4 3d 9b a7 8b bc
       -0.01827249 0.014199437 0.087919846 -0.017047694
0000d0 97 d3 50 3d 04 df 17 3d 9d 78 52 3d 73 cb 08 bc
       0.050983038 0.03707792 0.051384557 -0.008349287
0000e0 d8 88 ca ba 02 d7 0f bd 57 07 81 3d 56 d5 f0 bc
       -0.001545216 -0.035117157 0.06300228 -0.029398602
0000f0 2f 6e c7 3c ae 41 34 3d 75 81 0f bd 73 00 0c bc
       0.024344532 0.04400795 -0.03503557 -0.008545029
000100 69 90 57 3d 92 67 ba 3c 32 1a 13 3d d1 76 18 bd
       0.052627955 0.022754464 0.035913654 -0.037222687
000110 9a aa 71 3d 04 49 59 bd f3 8a b9 bc c4 d1 94 bc
       0.05900059 -0.05304815 -0.022649264 -0.01816643
000120 fe a0 89 bd 17 e6 f5 3b f1 0a 0e 3d eb 2a 6f 3d
       -0.0672016 0.0075042355 0.034678403 0.05839054
000130 2c 03 81 bc 7e b3 95 bc 10 38 0a bc 16 39 13 bd
       -0.015748583 -0.018274065 -0.008436218 -0.035943113
000140 27 d8 6d 3d 16 d0 85 bc 0d 4c 14 bd 7d 65 6a 3d
       0.058067467 -0.016334575 -0.03620534 0.057225693
000150 8a 37 9b 3b d2 9b 14 bc e4 f5 b2 bc 59 52 67 3d
       0.0047368454 -0.009070354 -0.021845765 0.056475017
000160 08 1c 85 3d 0d 1a a3 3c 9c 28 69 3c 64 b8 8a bb
       0.06499487 0.019909883 0.014230873 -0.004233407
000170 79 ce 7b bc 8f 51 9c 3d 24 9b 99 3d c5 60 38 bc
       -0.015369051 0.076327436 0.07500294 -0.01125354
000180 0c 28 d3 3c 1e 82 61 3d 7c 5d 75 bc fa 5c 9a 3d
       0.025775932 0.05505573 -0.014975902 0.07537265
000190 df c8 82 38 e5 bc 8f 3b e8 2a 21 3d 87 a4 d2 bc
       6.236298e-05 0.0043865317 0.03934756 -0.025713218
0001a0 bb 40 2c bd df bb 1a bd 09 7b 38 bd ae 43 ee bc
       -0.04205392 -0.037776824 -0.04503921 -0.029085007
0001b0 47 80 09 bd 26 96 58 bc f7 34 61 bd 32 e1 4b bd
       -0.0335696 -0.013219392 -0.05498215 -0.04977531
0001c0 fa 41 8c 3d 5d 60 60 bd 1a b0 88 bd 4c c9 4b bd
       0.068485215 -0.0547794 -0.06674214 -0.04975252
0001d0 79 95 78 3c de 94 15 3c c1 11 bb 3b a2 1c ea bc
       0.015172356 0.009129731 0.0057089035 -0.028578106
0001e0 05 5b 5d 3d a2 5a 2d bb 5c 66 54 3d c3 98 91 3d
       0.05404188 -0.0026451726 0.05185543 0.07109215
0001f0 85 98 e3 bc 0f 8e 47 bc b1 6d 70 3d 6f 1d 34 3d
       -0.027782688 -0.0121798655 0.05869836 0.043973383
000200 5a a4 0f 3d 92 8d d9 3a c1 44 05 bd 6c d4 49 bd
       0.035068847 0.0016597977 -0.032536272 -0.049274847
000210 d4 9d 01 3d d2 79 ab bd 35 13 10 3d e0 42 8b 3c
       0.031644657 -0.08372845 0.035174567 0.016999662
000220 0c 92 7a bb 11 e0 ef 3c c2 77 a5 bd f3 b4 1d bd
       -0.0038234023 0.029281648 -0.080794826 -0.038502645
000230 20 8c 24 bd 67 1b 95 3d 8e ad 16 bd 33 4c 65 bd
       -0.040172696 0.07280617 -0.03678661 -0.055980872
000240 8e 39 43 bd d1 49 b4 bc c3 f4 4d bd 10 4c 88 bd
       -0.04766231 -0.022007855 -0.05028225 -0.06655133
000250 43 64 8f bd 9a f2 54 bd d5 a8 5e ba 0a 09 14 3d
       -0.07001545 -0.051989175 -0.0008493786 0.036141433
000260 b7 dd 89 3d 57 0c 0f 3d d6 3d 6a 3d 26 7d e5 bc
       0.06731742 0.034923878 0.057187878 -0.028013777
000270 04 4a 17 bd 6b ae 89 3d 41 f4 46 bc 90 1f 37 3d
       -0.03693582 0.06722721 -0.012143196 0.044707835
000280 8b 5e 46 bd 68 e8 4d bd 30 57 5b 39 21 63 42 3d
       -0.048430007 -0.050270468 0.00020917947 0.047457818
000290 eb ad 32 3d 34 5b 1b b9 04 68 a6 bc 5c eb 48 3d
       0.043622892 -0.00014815928 -0.02031327 0.04905258
0002a0 89 b3 06 bd 70 98 4c 3d e0 1b bb 3b 51 e7 e2 3c
       -0.03288606 0.049950063 0.00571011 0.02769819
0002b0 01 b5 3c bd 77 67 09 3c d2 22 36 bd 8e fc 6e bd
       -0.046071056 0.008386484 -0.0444668 -0.058346324
0002c0 8d 89 08 3d ef 07 a1 3c 21 4e 04 bd 71 e5 a1 bc
       0.033334304 0.019657103 -0.032301072 -0.019762727
0002d0 e0 43 fd 3c 81 25 5b bd 41 ce 11 bd 31 41 48 3d
       0.030916154 -0.053502563 -0.03559709 0.048890296
0002e0 6e 04 1e 3c 86 88 b2 bd d1 c2 56 bd ea 58 79 bd
       0.009644611 -0.08717446 -0.052431885 -0.06087581
0002f0 5a 0f 6a bc 87 f3 46 bd 37 e6 23 3d 5f 4d 4b 3d
       -0.014285887 -0.04857209 0.04001447 0.049634334
000300 26 fc 4f bd f3 2e c8 3c 6a b1 66 bd f5 28 50 3d
       -0.050777577 0.02443645 -0.05632154 0.05082031
000310 ed e5 44 bd c6 fa 13 3b 92 b6 34 3c 76 3f 33 bd
       -0.048070837 0.0022579893 0.011029856 -0.043761693
000320 48 a0 90 bd 90 9d 49 3d ba 9d 1e bc e4 79 f6 bb
       -0.07061821 0.04922253 -0.00968116 -0.0075218547
000330 05 f4 9b bc dd 17 aa bd bd 0f 36 3d 04 18 68 bd
       -0.019037256 -0.08305333 0.044448603 -0.056663528
000340 57 c9 81 3d 28 cb 5a bc cf f5 01 3d e4 62 9d bc
       0.06337231 -0.0133541 0.031728562 -0.019212194
000350 f1 8c c7 3c 72 ea ed bc 35 95 19 bd e7 18 73 bd
       0.024359198 -0.029042456 -0.03749581 -0.05934992
000360 10 22 14 3d fe e8 51 3d 6a 7f 0f bc 60 13 3e bb
       0.036165297 0.05124759 -0.008758405 -0.0029003248
000370 b7 1a 82 3c 1c c4 7c bd 4f 55 bf bc d2 25 66 3d
       0.01588188 -0.061710462 -0.023356108 0.056188412
000380 3d 11 59 bd b1 93 0d bd 26 0a 2a bc ba b8 8e bb
       -0.052994955 -0.034564678 -0.010378396 -0.004355517
000390 f9 e4 49 ba f2 b8 92 3d e5 85 b6 bb 52 48 ae 3c
       -0.0007701661 0.07164182 -0.0055701607 0.02127472
0003a0 d5 e6 34 bd ad b2 fa bc 1c 36 87 3c dd e6 72 3d
       -0.04416545 -0.030602777 0.016505294 0.0593022
0003b0 50 db 7b 3d 5f f2 f4 3a 44 ea 24 bd 85 88 1c 3d
       0.06148845 0.0018687955 -0.040262476 0.038216133
0003c0 7c 73 27 3d bf bd 88 3c c5 66 b5 bc 78 df a3 3c
       0.04088162 0.01669204 -0.02214373 0.02000402
0003d0 0b df 8b 39 03 38 c5 bc 52 a5 8f bb 6b 02 14 3d
       0.00026678326 -0.02407456 -0.0043837214 0.03613512
0003e0 2c 2e 9d bc 4a ea e3 3b 64 bf 2b bd 02 57 97 3d
       -0.019187056 0.0069554197 -0.04193057 0.07389642
0003f0 a5 a8 90 bc 71 f5 8b 3c 9e 42 3b bd 7c 66 c4 3c
       -0.017658541 0.017084809 -0.045717828 0.02397465

conv2.bias f4 [16]
000000 38 4f d4 3b 7b c3 8f 3d 8d eb df 3c b9 cc 9e 3c
       0.00647917 0.07019707 0.027333999 0.019384729
000010 80 ec 36 3c 59 a3 d5 b9 c7 2a c6 3d 16 7e ac bc
       0.011164784 -0.0004074823 0.09676128 -0.021056216
000020 4e f0 a6 bd be f5 2f 3d 72 9c 28 bd 10 50 cb bd
       -0.08151303 0.042958967 -0.041164823 -0.0992738
000030 cd 96 2a 3d 89 a4 17 3c 64 7c 41 bd 90 a7 76 bd
       0.04164772 0.009255537 -0.04723777 -0.060218394

conv3.weight f4 [32, 16, 5, 5]
000000 75 ee 67 bc 96 b9 21 bd 8c 30 2d 3b 08 9e fa 3b
       -0.014155974 -0.03948363 0.0026426641 0.0076482333
000010 09 60 11 3d 0f 4f 21 bd 9e 36 cb ba 67 6d 10 bd
       0.035491977 -0.039382037 -0.0015503948 -0.035260584
000020 b2 1d 5d bc 57 8e 25 3d e2 0c 52 3c f6 6e f8 3c
       -0.013495849 0.04041895 0.012820454 0.030326348
000030 9e e1 db bc d5 ae 10 bd e1 6c 28 bd 63 45 00 3d
       -0.026840981 -0.035322983 -0.04111946 0.031316172
000040 7a 20 c3 3b 37 96 77 bb 87 aa 18 bd 7f 9a 89 bc
       0.0059547992 -0.0037778744 -0.037272003 -0.016797302
000050 da ff 21 bd fd 40 47 3b 56 04 21 3d 20 b4 13 3d
       -0.03955064 0.0030403726 0.039310776 0.036060452
000060 2e 65 8f 3b d8 d8 b6 bc e5 4e e8 bc 6c 60 16 bc
       0.004376075 -0.022320196 -0.028357932 -0.009178262
000070 fe 8b fe bc a4 9a 13 3c 2b 9e 46 3d d5 a0 33 3d
       -0.031072613 0.009009037 0.048490684 0.043854553
000080 6c af ac 3c 9f c1 12 3d 1c 44 2b 3d fb 99 75 bc
       0.021079741 0.035829183 0.041813 -0.014990325
000090 86 8d 3e bd d9 d9 30 bd 64 0a 36 3d db 26 b5 bc
       -0.046521686 -0.043176506 0.044443503 -0.022113254
0000a0 62 68 9d bc f0 8b 31 ba 92 77 01 bd 81 3e 08 bd
       -0.019214813 -0.00067728665 -0.03160817 -0.033262733
0000b0 3d 9b 45 3d 58 4d 38 bd 7b 69 3d bd fe a2 9d 3c
       0.04824375 -0.044995636 -0.046243172 0.01924276
0000c0 20 42 50 3d 44 e9 7b 3b db e2 2f 3c 61 e7 f0 3c
       0.05084431 0.0038438598 0.010735239 0.029407205
0000d0 6c 6e d9 bb 1a fd cc bc 67 2d 20 3d fc d8 30 bd
       -0.0066354778 -0.025023032 0.0391058 -0.043175682
0000e0 8e fd f9 bc 5a 98 4b bc 88 ac 2e bd b9 94 fc bc
       -0.030516412 -0.01242646 -0.042645007 -0.030832635
0000f0 4a ec d4 3c c0 33 d6 b9 14 da 44 bd 34 1a 05 3d
       0.025991578 -0.00040855817 -0.048059538 0.032495692
000100 63 81 8a 3c 75 e3 e1 3c 3c 00 82 3c 66 31 b4 3c
       0.0169074 0.02757428 0.015869252 0.021996211
000110 c9 66 f9 ba b0 7b b8 bb 4c da 34 bc 9c 7c cd bc
       -0.0019027825 -0.005629979 -0.011038374 -0.025083832
000120 7e 5f 06 bd 1b e8 ff bc a5 bd 42 bc 0d 98 2f 3d
       -0.032805912 -0.031238606 -0.011886035 0.042869616
000130 f0 3a 6d bc 85 58 eb bc 74 92 8f bc f7 b5 58 3c
       -0.014479384 -0.028728733 -0.017525889 0.013226978
000140 0a 8c ce bc 53 21 35 3d 67 e8 7c bc 12 50 ed 3c
       -0.02521326 0.044221234 -0.015436268 0.028968845
000150 72 80 d1 bc 76 cb 2d 3d 6a df 38 bc 04 8f 4f 3d
       -0.025573943 0.042430364 -0.011283735 0.0506735
000160 cd af c5 3c 2d c6 dd 3c 67 a7 b6 3c 92 99 71 3c
       0.02413168 0.027072037 0.02229662 0.014746087
000170 f5 91 33 bb 75 50 b5 3c de 03 df bc fc 5c 56 3c
       -0.002740023 0.022133091 -0.027223524 0.013083693
000180 5a dd 41 bc 88 39 a7 bc bc d0 33 bd 55 40 2c 3d
       -0.0118325595 -0.020413175 -0.043900236 0.04205354
000190 27 2e f7 bc 18 9c 9c bb b5 93 49 bd e9 45 aa 3c
       -0.030173374 -0.00477935 -0.04921313 0.020785289
0001a0 ff 1c 05 bd 65 3e f1 3c b7 08 02 bd c8 6a 47 bd
       -0.032498356 0.029448697 -0.031746592 -0.04868582
0001b0 31 29 26 3d b1 3b 10 3d ff 47 f0 bc 43 cd 10 bd
       0.040566627 0.035213176 -0.029331205 -0.035352003
0001c0 e1 33 3f bd 49 7a 00 bd e9 b9 55 3c e1 e6 48 bd
       -0.046680335 -0.03136662 0.013044813 -0.04904831
0001d0 d7 d7 51 3c 5c fc ab bc cc c0 07 bd a6 40 c6 3c
       0.012807808 -0.020994358 -0.03314285 0.024200749
0001e0 a8 b6 03 bd 96 2d 49 bd b6 00 b4 3c 16 bf 4c 3d
       -0.032156616 -0.04911574 0.021972995 0.04998692
0001f0 15 a3 30 3d 91 7d 2d 3c 9a 23 12 bd 96 e9 2c 3d
       0.043124277 0.010589019 -0.035678484 0.042214952
000200 11 22 2a 3d f0 1a d6 bc a4 6b 3a bd 3b 29 da ba
       0.041536395 -0.026135892 -0.04551281 -0.0016644368
000210 8f 29 e0 3b b7 c5 33 bd 07 be 10 bd 63 fc a7 bb
       0.0068408917 -0.043889727 -0.035337474 -0.0051265224
000220 da 46 b1 3c 93 52 2b 3c 40 c3 67 3c e4 4b ca 3c
       0.02164023 0.010456699 0.014145672 0.02469439
000230 6c 87 43 3d 70 18 8d bc 0c 51 c5 3c 94 63 22 3d
       0.04773657 -0.017223567 0.024086498 0.039645746
000240 9f 22 a9 bc 9d 5c 49 3c d9 7f 25 3d e8 92 42 3c
       -0.020646391 0.012290147 0.04040513 0.0118758455
000250 60 67 12 bd 32 df 34 3c 23 ff 38 3d 25 3f ea bb
       -0.035743117 0.011039542 0.045165192 -0.0071486407
000260 fd 33 0e 3d 22 0a be 3b da 1b f6 3b f9 ba b1 3c
       0.03471755 0.005799548 0.0075106444 0.0216956
000270 b5 f1 01 3d c5 60 4b 3d 03 4a 0e bd 44 2b d3 3c
       0.03172465 0.049652833 -0.03473855 0.025777467
000280 f9 c6 88 bc 1a f3 31 3c 68 78 13 3d fc 8f 39 bc
       -0.01669644 0.010861183 0.0360035 -0.011325832
000290 e1 91 f4 bc 00 29 5f 3c d9 3d b2 bc 54 18 c6 bc
       -0.029854717 0.013620615 -0.021758007 -0.024181522
0002a0 e7 59 20 3d c1 74 b7 bc 50 eb e8 bc 15 39 f4 3c
       0.039148238 -0.02239454 -0.028432518 0.029812375
0002b0 70 50 39 bd a4 6f a1 bc 50 bf fa 3c 4f 73 77 3c
       -0.045242727 -0.019706555 0.030608803 0.015103175
0002c0 1f 6f 18 3c 85 57 0c 3d 26 2a f3 3c 4a 96 b1 3b
       0.009303837 0.034263153 0.029683184 0.005419527
0002d0 14 97 24 3d 4c 0f 15 3d 83 8b 1e bb 61 7d 16 bd
       0.04018314 0.03639154 -0.0024192042 -0.036740664
0002e0 67 d7 98 bc 68 1a 71 3c e0 6c 06 bd b1 c4 bb bc
       -0.0186574 0.014715768 -0.032818675 -0.022920938
0002f0 64 42 36 bb 12 c7 2a bd b9 63 02 bd 5b 70 f3 3b
       -0.0027810568 -0.041693754 -0.031833384 0.0074291653
000300 71 b6 38 3d 9a 34 1c 3d dc 3a 91 3c 9b 9b 38 3d
       0.045095865 0.038136102 0.017728262 0.045070272
000310 fc df 54 3b 98 2a 17 3b 59 38 b8 3c 94 74 d4 bc
       0.0032482138 0.002306616 0.022487806 -0.025934495
000320 73 73 52 3d cb 4e a8 bc 33 c2 95 ba 7c d5 27 3d
       0.051379632 -0.020545384 -0.0011425674 0.04097508
000330 24 4c 00 bd 45 cb 75 3b a3 2c 38 3d fd 72 ed bb
       -0.031322613 0.0037505191 0.044964444 -0.0072463737
000340 2c 2d 63 bc 02 13 50 bd 02 9e cf bc a1 17 21 bd
       -0.01386575 -0.050799377 -0.025343899 -0.039329175
000350 86 e1 c3 3c 27 dc 48 bd 86 78 36 bd 08 4e 2c 3c
       0.023911249 -0.04903808 -0.044548534 0.010516651
000360 24 53 2c 3d 9b 0d a1 bb b2 e0 48 bd dd e5 1c 3d
       0.042071477 -0.004914952 -0.04904241 0.038305152
000370 94 9e c7 3c 80 53 f5 bc 36 7a 99 bc 6f 93 ef bb
       0.024367608 -0.029947042 -0.018735033 -0.0073112766
000380 92 e1 28 bd ff cf 4b 3d cf 76 30 3d 3e cb 1c bd
       -0.041230746 0.049758907 0.043082055 -0.038279764
000390 a5 a9 49 bd 11 6a 4c bd 93 9a 13 bd fc 5b 3e bd
       -0.04923405 -0.04990584 -0.036036085 -0.046474442
0003a0 4f a2 f6 bc a5 bc f9 3b a0 29 23 3c 53 e3 94 3b
       -0.030106692 0.007621365 0.009958655 0.0045437007
0003b0 a5 52 3d bd e7 58 12 bc 69 10 07 bd 37 30 ab bc
       -0.046221394 -0.008932329 -0.032974634 -0.020897014
0003c0 93 93 29 ba ac ce 61 3c 5b 38 38 bc 5b 14 70 bc
       -0.00064688287 0.013782185 -0.011243905 -0.014653291
0003d0 8f 6d 47 3d 7b c0 6a 3c 10 a8 ed 3b 44 fb 29 3d
       0.048688468 0.0143281175 0.0072527006 0.04149939
0003e0 1e 7d a5 3c 7d 06 6f bb 97 15 78 3c 72 13 3b bd
       0.020201262 -0.0036472373 0.015141866 -0.04567284
0003f0 c5 10 2a 3d 9a fc 8c 3c 06 85 20 bd c0 74 33 3d
       0.0415199 0.017210294 -0.03918936 0.043812513

conv3.bias f4 [32]
000000 6d e2 ea 3c 94 f0 ca 3b cc 6b 9b 3d ee 4a 3a bd
       0.028672421 0.00619323 0.0758892 -0.045481615
000010 30 4a eb 3c 0a 38 81 3c 15 cc 92 bc 74 dc 2f 3c
       0.028721899 0.015773792 -0.01791958 0.010733712
000020 75 1a 28 3d cc fc 1f bd 76 5b f3 bc 3d 7e ec 3c
       0.041040856 -0.039059445 -0.029706698 0.028868789
000030 92 12 11 3d c4 31 29 3d f1 1a 36 bb a4 ce b2 3b
       0.0354181 0.041307226 -0.0027787054 0.0054567624
000040 dc 34 cc 3b 36 28 90 3d cd 44 dd 3d e5 9e fe 3d
       0.0062318873 0.0703892 0.10804138 0.124326505
000050 50 ec ad 3d db c5 0c 3d f0 53 85 bb 5d 37 42 3d
       0.08492339 0.034368377 -0.004068844 0.04741608
000060 b0 c9 5f 3c c8 65 2b bd 35 6d e4 bc 1b 99 ec bc
       0.013658926 -0.041845113 -0.027884105 -0.0288816
000070 5b 5b 16 bd 6e fb c4 bb e5 cc 4a bd 36 61 b1 bb
       -0.036708217 -0.006011418 -0.04951181 -0.0054132

linear1.weight f4 [75, 32]
000000 1b 16 0a be c0 59 b4 bd 31 d1 55 bc 38 75 1d 3d
       -0.13484995 -0.08806181 -0.013050363 0.038441867
000010 51 dd 62 3d a4 b6 01 3e 7c 3c 1e bc 91 f1 bf bd
       0.055386845 0.12667328 -0.009657975 -0.09372247
000020 f4 e5 59 3d 6a d4 33 be 0f d1 c5 bc 62 10 29 3e
       0.053197816 -0.17561498 -0.024147538 0.16510156
000030 8c 57 2d bd dd 1d 40 3b 19 db d3 bc cd 19 29 bc
       -0.04231982 0.0029314675 -0.02586131 -0.010321093
000040 28 b5 13 3d f0 c4 2b be 0a d3 3f bd 5c 8a 0c 3e
       0.036061436 -0.16774344 -0.046832122 0.13724655
000050 3a 22 32 3e 30 a0 33 be 95 7b 29 be 49 8d b7 3d
       0.17395869 -0.17541575 -0.16551049 0.08962495
000060 41 76 93 3d 75 41 c0 bd 20 7a ab bd f6 46 71 3d
       0.072002895 -0.09387485 -0.08372903 0.058905564
000070 c7 b8 41 bd d9 4d c2 3c 86 29 e8 3d 56 3e 26 3e
       -0.047295358 0.023718761 0.11336045 0.16234717
000080 89 63 f3 3d 5a 7f 32 3e 56 fe 18 3e 6e 4f 86 bd
       0.11884219 0.17431393 0.14940771 -0.06558119
000090 af de 17 3d 43 f9 72 3c d0 2d 72 3c 88 66 11 3e
       0.037077602 0.014829936 0.01478143 0.14199269
0000a0 63 96 9b 3d 47 04 6c 3d c2 16 2a 3e 5b d1 75 3d
       0.07597043 0.057621267 0.16610244 0.06001411
0000b0 6f 4a ef 3d 1e 84 eb bd b9 0a d4 bd 73 91 11 3e
       0.11684119 -0.11499809 -0.10353608 0.1421564
0000c0 ba 4c 14 3e c6 36 1d be 47 52 ae bd 36 a7 04 3e
       0.14482394 -0.15352926 -0.08511787 0.12954411
0000d0 05 59 40 3d c1 6a 20 be 54 88 2d be 0c 92 fa 3d
       0.046959896 -0.15665723 -0.16946536 0.122348875
0000e0 8c d2 3e bd 23 ac 25 bb f9 93 7a 3d 57 f4 71 3a
       -0.046587512 -0.0025279603 0.061176274 0.000922983
0000f0 8a 9e af 3d 4a a9 31 be f0 b2 f4 3d b9 5c c1 bd
       0.08575161 -0.17349735 0.11948192 -0.094415136
000100 c6 ca 72 3d 9d 04 07 3e 80 08 13 3e 6f 11 c4 3c
       0.05927541 0.13185354 0.14358711 0.023934094
000110 ce b4 09 be 66 a4 7c bd 2e 06 f9 bd ac 92 00 3d
       -0.13447878 -0.06168022 -0.12159382 0.031389877
000120 89 37 a8 3d 45 d8 ef 3d b0 53 37 bd df 1f 07 3e
       0.082137175 0.11711172 -0.044757545 0.13195752
000130 0a fa 11 be 53 7f d2 3d c6 d1 39 3e 0a 0c 0b bd
       -0.14255539 0.102781914 0.18146428 -0.03394703
000140 63 54 64 bd 25 bd 01 be 48 82 3c 3e 72 2a 2f 3e
       -0.05574454 -0.12669809 0.18409073 0.17106035
000150 9a d0 7b bc 21 ed b3 bd 8e 79 95 3d 12 b9 c8 3d
       -0.015369559 -0.08785463 0.07298575 0.09800924
000160 a6 fc bd 3d 51 55 bd bc 96 c0 27 bd c9 5d 6d 3d
       0.092767045 -0.023111971 -0.04095515 0.05795077
000170 44 c3 44 3d 18 6d a6 bd e4 df ff bc 17 c6 2a 3e
       0.048037782 -0.08126277 -0.031234689 0.16677128
000180 2c 2c 10 3e bd 49 1a 3e 66 c8 d6 bc 69 a5 a0 bd
       0.1407935 0.15067191 -0.026218604 -0.078440495
000190 5e 32 1b 3e 90 86 c5 bd 1a dc c3 bc ac 27 12 be
       0.15155932 -0.096448064 -0.023908664 -0.14272946
0001a0 98 5c 25 3d 70 58 23 3d a4 e7 b4 3d 4e 3e bb 3d
       0.040371507 0.039879262 0.088332444 0.09142743
0001b0 12 e6 f4 3d 6a 0a 34 be 5c 25 bc 3d e0 cb 01 3d
       0.11957945 -0.17582098 0.09186813 0.03168857
0001c0 c6 f0 1c 3e a1 db 27 be b4 aa 00 3e 84 21 bb 3d
       0.15326223 -0.16392376 0.12565118 0.09137252
0001d0 cd 98 b2 bd d4 01 4a bd 4f d1 c3 3d 9e 6a 00 3e
       -0.08720551 -0.04931815 0.09561407 0.12540671
0001e0 ca b1 62 bc e8 d4 bb bd a7 35 12 3e e6 8f 21 3d
       -0.0138363335 -0.09171468 0.14278279 0.039443873
0001f0 da 0f 1e 3d 4a 28 20 3d b4 41 0e 3e 27 74 e4 bd
       0.038589336 0.039100923 0.13892251 -0.11154967
000200 45 5a c5 bd e0 5d 3b 3c a6 4c 34 be c6 8d 2a 3d
       -0.09636358 0.011435956 -0.17607364 0.041639112
000210 e4 3f b8 bd 51 97 fa 3c 1c 1d d2 3d 76 9d 36 be
       -0.08996561 0.030589731 0.102594584 -0.17833504
000220 69 c7 96 bd 0c e2 67 3d 32 5e 83 3d be 91 71 3d
       -0.07362253 0.05661206 0.06414451 0.05897688
000230 1d 4e 82 3d fc 31 8b 3d 71 e2 18 3e 92 a8 15 3e
       0.06362555 0.06796643 0.1493013 0.14615086
000240 f6 74 25 3d 84 e1 b3 bd 25 d4 64 bd 33 12 c8 bc
       0.040394746 -0.08783248 -0.05586638 -0.02442274
000250 eb f6 68 3d 78 60 09 3e c6 6c 0f 3c 48 5c 92 3d
       0.056876104 0.13415706 0.008753961 0.071465075
000260 6d 7f 31 bd cf dc b3 3d bc 23 30 3d e7 c5 d0 bd
       -0.043334413 0.0878235 0.04300283 -0.10193997
000270 3f 46 ed 3d a1 c2 4c 3c ac 93 eb bd a7 2d e9 bd
       0.11585664 0.012497575 -0.115027755 -0.113856606
000280 1e 10 7d bd 67 94 73 bd aa 33 09 3d 89 78 cf bd
       -0.06178295 -0.0594677 0.033496536 -0.10130412
000290 32 e6 c7 3c e1 bf 5a 3d a4 ff 23 be e9 e2 2c 3e
       0.024401758 0.053405646 -0.16015488 0.16883434
0002a0 1f ae af bd ba a1 74 3d c8 0d 8a 3d bf 05 94 3d
       -0.08578133 0.059724547 0.0674091 0.072276585
0002b0 e5 72 f3 bd 2d f8 26 be a4 07 2c 3e a3 15 94 3d
       -0.11887149 -0.16305609 0.1679979 0.072306894
0002c0 e1 c3 32 be b3 52 72 3d 05 8e b3 bd 9e 39 7e bd
       -0.17457534 0.0591609 -0.087673225 -0.062066667
0002d0 1a 62 23 be cf af c7 3d 14 0c 89 bd 0c 0c 5f bd
       -0.15955392 0.0975033 -0.06691757 -0.05445485
0002e0 72 f7 28 be c4 47 d4 bd 67 d1 3d 3e 36 69 bd 3d
       -0.16500643 -0.10365251 0.18536912 0.09248583
0002f0 67 1a 30 be 08 7f 28 be 5c 98 21 be de d5 c3 3d
       -0.17197572 -0.16454709 -0.15780777 0.09562276
000300 8a 77 60 3d ff 6b 1c 3e 47 f3 20 3e 87 2e 13 3c
       0.0548015 0.15275572 0.15717803 0.008983261
000310 68 bd 5e 3d f9 84 21 3d 4d 74 e0 3d 92 26 4b 3d
       0.05437985 0.039433453 0.109596826 0.04959733
000320 72 08 d7 b9 a0 2e 15 3e 15 80 0d 3e f3 eb fb 3d
       -0.00041014288 0.14568567 0.1381839 0.12300863
000330 13 7e 29 3e 92 df 17 bd a7 02 8b bc c4 de 28 be
       0.16552 -0.037078448 -0.016969038 -0.16491228
000340 73 cc 2a bb ce 28 b6 3b c6 bc 11 be f5 77 f1 bd
       -0.0026061803 0.0055590635 -0.14232168 -0.11790458
000350 49 e3 03 bd 29 4a 0c be 2a 42 ce bd a3 38 e2 bc
       -0.032199178 -0.13700165 -0.100712135 -0.027614897
000360 a8 71 6e bd 17 a2 d9 3d 45 1b 7c bc 00 6e 59 3c
       -0.05821386 0.10626619 -0.015387361 0.013270855
000370 a1 32 04 be 8e f9 df bc 2f 69 14 be 13 89 26 3d
       -0.12909938 -0.027340677 -0.1449325 0.040658068
000380 00 aa 0e 3c 38 ea b1 3c 17 d6 98 3d 51 d9 b5 3d
       0.008707523 0.02171813 0.074627094 0.088793404
000390 25 0a 08 3e e7 c6 fc bd d9 17 91 3d 0e d7 46 bd
       0.1328512 -0.12342625 0.07084627 -0.048544936
0003a0 23 56 0f 3e 36 3e 6e 3d 53 c4 8c bd 19 fe 7b 3c
       0.13997702 0.058164798 -0.068733834 0.015380406
0003b0 21 cf 2e be ce 54 bf 3d ff 8b 3c 3c d9 20 1c be
       -0.17071201 0.09342347 0.011507987 -0.15246905
0003c0 0b 2e 6a 3d 90 a8 2b 3c 84 98 d8 3d 92 55 e4 bd
       0.057172816 0.0104772 0.10575965 -0.11149134
0003d0 30 18 12 bd c6 b2 1d bc 2a 4f 29 be d0 59 7b bc
       -0.0356676 -0.009625142 -0.16534105 -0.015341237
0003e0 1d b0 8f 3b 5f 7c 1c 3e bd 52 30 bd 20 dd 34 3d
       0.004385008 0.15281819 -0.043047655 0.044156194
0003f0 de 69 10 3e 41 6a d0 3c a9 40 33 be 0f f5 10 be
       0.14102885 0.02544129 -0.17505135 -0.14155982

linear1.bias f4 [75]
000000 46 37 ea bd 6a e9 86 bd d9 9a 32 3e 63 06 e5 bd
       -0.11436324 -0.06587489 0.17441882 -0.11182859
000010 88 43 2c 3d 3f 50 b5 bc 9a 5f ed 3d 26 56 1a be
       0.04205659 -0.02213299 0.115905 -0.15071926
000020 91 3d 26 3e e5 52 3d bc 4e b2 95 3b aa 73 b4 bd
       0.16234423 -0.011555408 0.0045683747 -0.08811124
000030 2d ea c2 bd 98 7c ba 3d cd 8f 2f bc e0 f0 1d be
       -0.09517322 0.091057956 -0.010715437 -0.15423918
000040 bb ea c1 bb e3 da 9b 3d f3 8b 8b bc 57 b4 f3 bd
       -0.0059178746 0.07610109 -0.017034506 -0.118996315
000050 e2 4e 1f 3e 3f d7 e3 3d a8 7d 42 3d 23 b0 32 be
       0.15557435 0.11125039 0.047483116 -0.17450003
000060 b8 7a 88 3e 5a 9d bb bc 31 22 19 3e 06 2c fb bd
       0.26656127 -0.02290218 0.14954449 -0.12264256
000070 17 59 71 bd 1e 63 e2 3d 7d 29 fb bd 82 d7 bd 3d
       -0.058922853 0.11054061 -0.12263773 0.092696205
000080 2e 02 46 3e 96 00 82 bd 55 39 66 3d e8 3d 25 bd
       0.19336769 -0.06347768 0.05620702 -0.04034224
000090 88 31 26 be 9a 2e f4 3c 6f 08 14 3a f1 04 10 3e
       -0.16229832 0.029807378 0.00056470087 0.14064385
0000a0 0a 62 d5 3d d7 4e 2e be a8 29 e7 3d b8 fb ef bd
       0.1041909 -0.17022263 0.11287242 -0.117179334
0000b0 85 77 96 bd 53 fa 7a 3d 03 97 ea 3d 28 97 01 3c
       -0.07347015 0.061273884 0.114545844 0.007909574
0000c0 c9 e3 50 3e 13 0d da bd 34 1a d5 3d 77 ca f7 3c
       0.20399393 -0.10647025 0.104053885 0.03024791
0000d0 12 4e fd 3d c3 34 51 3d 95 a0 68 3d 68 22 27 bc
       0.12368406 0.051075708 0.056793768 -0.010201074
0000e0 f3 b4 f3 3d 3f 2b 08 be 6c b7 f2 3d 63 13 e8 3d
       0.11899748 -0.13297747 0.11851391 0.11331823
0000f0 a5 98 34 3d 43 3c ca 3d 32 c8 8f bd b8 b9 f0 3d
       0.044090886 0.09874775 -0.07020606 0.11754173
000100 34 c3 b1 bd 95 ef 95 bc 88 23 0a be 32 4a 15 be
       -0.0867981 -0.018302718 -0.13490117 -0.14579085
000110 81 73 1f 3e 93 0f 2a 3e 80 fc 40 bd 59 db 47 3d
       0.15571405 0.16607504 -0.047115803 0.04879317
000120 70 97 ef 3d 78 d1 ae 3d 1b d8 f1 3d
       0.11698806 0.08536047 0.11808797

linear2.weight f4 [1, 75]
000000 88 4d 43 bc d9 70 47 bc 9d 1d 82 be 9b ef cf 3d
       -0.01192034 -0.012172901 -0.25413218 0.10153123
000010 ff 00 ab 3d 8b 1d 7f 3d 3f ca e2 3c 5a 5c a5 3d
       0.08349799 0.062284034 0.02768433 0.08074255
000020 a2 4b 02 3d 74 4b 06 3d 37 85 a8 bd da 9c 23 bd
       0.03181041 0.0327868 -0.08228534 -0.039944507
000030 14 4b 6b bd 89 b3 11 3e a6 f0 7c 3d 81 16 2a be
       -0.057444647 0.14228643 0.061752938 -0.16610147
000040 02 49 ff 3a 9b ac 6a 3e 9a 0e 6b 3d fa b3 4d bd
       0.0019476714 0.22917406 0.057386972 -0.050220467
000050 f1 33 bb 3d fc 41 84 3e 52 55 28 3e d1 fe 0a 3c
       0.091407664 0.25831592 0.16438797 0.0084836045
000060 e6 96 94 be 87 52 5a 3d 5e 1f 97 3b 34 04 58 3c
       -0.29021376 0.05330136 0.0046118936 0.013184596
000070 15 16 cd 3d e8 20 ba 3d 57 37 04 be 62 e7 2f 3e
       0.100139774 0.090883076 -0.12911735 0.1717811
000080 7b 0e 14 3e 0e bd a9 bd ff 26 63 3d 1f 03 d1 bd
       0.14458649 -0.082880124 0.05545711 -0.102056734
000090 31 94 12 3d 39 8b 22 bd f3 23 0b 3c f6 ea 87 3e
       0.035785858 -0.039683554 0.008492458 0.26546448
0000a0 80 7b 05 3e 94 2e 97 3d 46 b9 f3 3c e3 80 0d 3d
       0.13035393 0.07381931 0.029751431 0.034546744
0000b0 66 a7 de 3d 1a 9e b1 bd 61 92 79 bd 8b 1c bb 3d
       0.108717725 -0.086727336 -0.060930613 0.091363035
0000c0 c5 6f 81 be a0 9d 63 bb 1f ce ea 3d 94 16 8d 3d
       -0.25280586 -0.0034731403 0.11465096 0.06889072
0000d0 6c 75 cb 3b 94 62 5f bc a9 6c 17 3e 1d 7e ef 3c
       0.006209066 -0.013634343 0.14787544 0.02923494
0000e0 65 11 8c 3e 52 29 88 3d cd 04 f2 3a 6a 84 bd bd
       0.2735702 0.06648506 0.0018464566 -0.092537716
0000f0 31 3c a3 bd 41 15 0b bd 7e ac 51 bd f4 92 a5 bd
       -0.07970465 -0.033955816 -0.051189892 -0.0808467
000100 22 08 c1 3d 81 18 0a be b8 e3 dd 3c 12 56 16 be
       0.09425379 -0.1348591 0.027086124 -0.1468127
000110 8e ef 6d bd 3e a0 51 3e 6b a8 06 bd a6 a0 f5 bd
       -0.058089785 0.20471284 -0.03287546 -0.11993532
000120 50 2d 87 be 4a ed 07 bd b3 a5 53 3c
       -0.26401758 -0.03318528 0.012917924
